…
 'eval_epochs': 1,
 'evaluate': False,
 'flip_toy_var_order': False,
 'generate': False,
 'hidden_size': 100,
 'input_dims': 17738,
 'input_order': 'sequential',
 'input_size': 17738,
 'log_interval': 10,
 'lr': 0.0001,
 'model': 'realnvp',
 'n_blocks': 5,
 'n_components': 1,
 'n_epochs': 200,
 'n_hidden': 1,
 'no_batch_norm': False,
 'no_cuda': False,
 'output_dir': './results/maf',
 'restore_file': None,
 'results_file': './results/maf/results.txt',
 'seed': 1,
 'start_epoch': 0,
 'train': True}
RealNVP(
  (net): FlowSequential(
    (0): LinearMaskedCoupling(
      (s_net): Sequential(
        (0): Linear(in_features=53214, out_features=100, bias=True)
        (1): Tanh()
        (2): Linear(in_features=100, out_features=100, bias=True)
        (3): Tanh()
        (4): Linear(in_features=100, out_features=17738, bias=True)
      )
      (t_net): Sequential(
        (0): Linear(in_features=53214, out_features=100, bias=True)
        (1): ReLU()
        (2): Linear(in_features=100, out_features=100, bias=True)
        (3): ReLU()
        (4): Linear(in_features=100, out_features=17738, bias=True)
      )
    )
    (1): BatchNorm()
    (2): LinearMaskedCoupling(
      (s_net): Sequential(
        (0): Linear(in_features=53214, out_features=100, bias=True)
        (1): Tanh()
        (2): Linear(in_features=100, out_features=100, bias=True)
        (3): Tanh()
        (4): Linear(in_features=100, out_features=17738, bias=True)
      )
      (t_net): Sequential(
        (0): Linear(in_features=53214, out_features=100, bias=True)
        (1): ReLU()
        (2): Linear(in_features=100, out_features=100, bias=True)
        (3): ReLU()
        (4): Linear(in_features=100, out_features=17738, bias=True)
      )
    )
    (3): BatchNorm()
    (4): LinearMaskedCoupling(
      (s_net): Sequential(
        (0): Linear(in_features=53214, out_features=100, bias=True)
        (1): Tanh()
        (2): Linear(in_features=100, out_features=100, bias=True)
        (3): Tanh()
        (4): Linear(in_features=100, out_features=17738, bias=True)
      )
      (t_net): Sequential(
        (0): Linear(in_features=53214, out_features=100, bias=True)
        (1): ReLU()
        (2): Linear(in_features=100, out_features=100, bias=True)
        (3): ReLU()
        (4): Linear(in_features=100, out_features=17738, bias=True)
      )
    )
    (5): BatchNorm()
    (6): LinearMaskedCoupling(
      (s_net): Sequential(
        (0): Linear(in_features=53214, out_features=100, bias=True)
        (1): Tanh()
        (2): Linear(in_features=100, out_features=100, bias=True)
        (3): Tanh()
        (4): Linear(in_features=100, out_features=17738, bias=True)
      )
      (t_net): Sequential(
        (0): Linear(in_features=53214, out_features=100, bias=True)
        (1): ReLU()
        (2): Linear(in_features=100, out_features=100, bias=True)
        (3): ReLU()
        (4): Linear(in_features=100, out_features=17738, bias=True)
      )
    )
    (7): BatchNorm()
    (8): LinearMaskedCoupling(
      (s_net): Sequential(
        (0): Linear(in_features=53214, out_features=100, bias=True)
        (1): Tanh()
        (2): Linear(in_features=100, out_features=100, bias=True)
        (3): Tanh()
        (4): Linear(in_features=100, out_features=17738, bias=True)
      )
      (t_net): Sequential(
        (0): Linear(in_features=53214, out_features=100, bias=True)
        (1): ReLU()
        (2): Linear(in_features=100, out_features=100, bias=True)
        (3): ReLU()
        (4): Linear(in_features=100, out_features=17738, bias=True)
      )
    )
    (9): BatchNorm()
  )
)
{'activation_fn': 'relu',
 'batch_size': 20,
 'cond_label_size': 35476,
 'conditional': True,
 'data_dir': './data/',
 'dataset': 'TEMPERATURE',
 'device': device(type='cpu'),
 'eval_epochs': 1,
 'evaluate': False,
 'flip_toy_var_order': False,
 'generate': False,
 'hidden_size': 100,
 'input_dims': 17738,
 'input_order': 'sequential',
…
